[INFO] Register count_convNd() for <class 'torch.nn.modules.conv.Conv2d'>.
[INFO] Register zero_ops() for <class 'torch.nn.modules.pooling.MaxPool2d'>.
[INFO] Register count_linear() for <class 'torch.nn.modules.linear.Linear'>.
==========================================================================================
Layer (type:depth-idx)                   Output Shape              Param #
==========================================================================================
├─Conv2d: 1-1                            [-1, 32, 28, 28]          320
├─MaxPool2d: 1-2                         [-1, 32, 14, 14]          --
├─Conv2d: 1-3                            [-1, 64, 14, 14]          18,496
├─MaxPool2d: 1-4                         [-1, 64, 7, 7]            --
├─Conv2d: 1-5                            [-1, 128, 7, 7]           73,856
├─MaxPool2d: 1-6                         [-1, 128, 3, 3]           --
├─Linear: 1-7                            [-1, 10]                  11,530
==========================================================================================
Total params: 104,202
Trainable params: 104,202
Non-trainable params: 0
Total mult-adds (M): 7.46
==========================================================================================
Input size (MB): 0.00
Forward/backward pass size (MB): 0.34
Params size (MB): 0.40
Estimated Total Size (MB): 0.74
==========================================================================================
==========================================================================================
Layer (type:depth-idx)                   Output Shape              Param #
==========================================================================================
├─Conv2d: 1-1                            [-1, 32, 28, 28]          320
├─MaxPool2d: 1-2                         [-1, 32, 14, 14]          --
├─Conv2d: 1-3                            [-1, 64, 14, 14]          18,496
├─MaxPool2d: 1-4                         [-1, 64, 7, 7]            --
├─Conv2d: 1-5                            [-1, 128, 7, 7]           73,856
├─MaxPool2d: 1-6                         [-1, 128, 3, 3]           --
├─Linear: 1-7                            [-1, 10]                  11,530
==========================================================================================
Total params: 104,202
Trainable params: 104,202
Non-trainable params: 0
Total mult-adds (M): 7.46
==========================================================================================
Input size (MB): 0.00
Forward/backward pass size (MB): 0.34
Params size (MB): 0.40
Estimated Total Size (MB): 0.74
==========================================================================================
…
